


Model Summary: 
Model: "sequential"
_________________________________________________________________
 Layer (type)                Output Shape              Param #   
=================================================================
 conv2d (Conv2D)             (None, 80, 80, 128)       3584      
                                                                 
 max_pooling2d (MaxPooling2D  (None, 40, 40, 128)      0         
 )                                                               
                                                                 
 conv2d_1 (Conv2D)           (None, 40, 40, 256)       295168    
                                                                 
 max_pooling2d_1 (MaxPooling  (None, 20, 20, 256)      0         
 2D)                                                             
                                                                 
 conv2d_2 (Conv2D)           (None, 20, 20, 512)       1180160   
                                                                 
 max_pooling2d_2 (MaxPooling  (None, 10, 10, 512)      0         
 2D)                                                             
                                                                 
 conv2d_3 (Conv2D)           (None, 10, 10, 512)       2359808   
                                                                 
 max_pooling2d_3 (MaxPooling  (None, 5, 5, 512)        0         
 2D)                                                             
                                                                 
 conv2d_4 (Conv2D)           (None, 5, 5, 512)         2359808   
                                                                 
 max_pooling2d_4 (MaxPooling  (None, 3, 3, 512)        0         
 2D)                                                             
                                                                 
 flatten (Flatten)           (None, 4608)              0         
                                                                 
 dense (Dense)               (None, 512)               2359808   
                                                                 
 dropout (Dropout)           (None, 512)               0         
                                                                 
 dense_1 (Dense)             (None, 4)                 2052      
                                                                 
=================================================================
Total params: 8,560,388
Trainable params: 8,560,388
Non-trainable params: 0
_________________________________________________________________

Model Name: tumor8.h5
Time taken: 93.81587266921997 seconds
Loss: 0.49869054555892944
Accuracy: 0.830232560634613
Recall: 0.8302325581395349
Precision: 0.8328117779306493
F1 Score: 0.829202999985344_________________________________________________________________


Model Summary: 
Model: "sequential"
_________________________________________________________________
 Layer (type)                Output Shape              Param #   
=================================================================
 conv2d (Conv2D)             (None, 80, 80, 128)       3584      
                                                                 
 max_pooling2d (MaxPooling2D  (None, 40, 40, 128)      0         
 )                                                               
                                                                 
 conv2d_1 (Conv2D)           (None, 40, 40, 256)       295168    
                                                                 
 max_pooling2d_1 (MaxPooling  (None, 20, 20, 256)      0         
 2D)                                                             
                                                                 
 conv2d_2 (Conv2D)           (None, 20, 20, 512)       1180160   
                                                                 
 max_pooling2d_2 (MaxPooling  (None, 10, 10, 512)      0         
 2D)                                                             
                                                                 
 conv2d_3 (Conv2D)           (None, 10, 10, 512)       2359808   
                                                                 
 max_pooling2d_3 (MaxPooling  (None, 5, 5, 512)        0         
 2D)                                                             
                                                                 
 conv2d_4 (Conv2D)           (None, 5, 5, 512)         2359808   
                                                                 
 max_pooling2d_4 (MaxPooling  (None, 3, 3, 512)        0         
 2D)                                                             
                                                                 
 flatten (Flatten)           (None, 4608)              0         
                                                                 
 dense (Dense)               (None, 512)               2359808   
                                                                 
 dropout (Dropout)           (None, 512)               0         
                                                                 
 dense_1 (Dense)             (None, 4)                 2052      
                                                                 
=================================================================
Total params: 8,560,388
Trainable params: 8,560,388
Non-trainable params: 0
_________________________________________________________________

Model Name: tumor8.h5
Time taken: 120.02725672721863 seconds
Loss: 0.41301363706588745
Accuracy: 0.8813953399658203
Recall: 0.8813953488372093
Precision: 0.8834462264353476
F1 Score: 0.8815447395452345_________________________________________________________________


Model Summary: 
Model: "sequential"
_________________________________________________________________
 Layer (type)                Output Shape              Param #   
=================================================================
 conv2d (Conv2D)             (None, 100, 100, 128)     3584      
                                                                 
 max_pooling2d (MaxPooling2D  (None, 50, 50, 128)      0         
 )                                                               
                                                                 
 conv2d_1 (Conv2D)           (None, 50, 50, 256)       295168    
                                                                 
 max_pooling2d_1 (MaxPooling  (None, 25, 25, 256)      0         
 2D)                                                             
                                                                 
 conv2d_2 (Conv2D)           (None, 25, 25, 512)       1180160   
                                                                 
 max_pooling2d_2 (MaxPooling  (None, 13, 13, 512)      0         
 2D)                                                             
                                                                 
 conv2d_3 (Conv2D)           (None, 13, 13, 512)       2359808   
                                                                 
 max_pooling2d_3 (MaxPooling  (None, 7, 7, 512)        0         
 2D)                                                             
                                                                 
 conv2d_4 (Conv2D)           (None, 7, 7, 512)         2359808   
                                                                 
 max_pooling2d_4 (MaxPooling  (None, 4, 4, 512)        0         
 2D)                                                             
                                                                 
 flatten (Flatten)           (None, 8192)              0         
                                                                 
 dense (Dense)               (None, 512)               4194816   
                                                                 
 dropout (Dropout)           (None, 512)               0         
                                                                 
 dense_1 (Dense)             (None, 4)                 2052      
                                                                 
=================================================================
Total params: 10,395,396
Trainable params: 10,395,396
Non-trainable params: 0
_________________________________________________________________

Model Name: tumor9.h5
Time taken: 375.8597059249878 seconds
Loss: 0.4596690535545349
Accuracy: 0.8232558369636536
Recall: 0.8232558139534883
Precision: 0.8270010025735858
F1 Score: 0.8203118589825801_________________________________________________________________


Model Summary: 
Model: "sequential"
_________________________________________________________________
 Layer (type)                Output Shape              Param #   
=================================================================
 conv2d (Conv2D)             (None, 80, 80, 128)       3584      
                                                                 
 max_pooling2d (MaxPooling2D  (None, 40, 40, 128)      0         
 )                                                               
                                                                 
 conv2d_1 (Conv2D)           (None, 40, 40, 256)       295168    
                                                                 
 max_pooling2d_1 (MaxPooling  (None, 20, 20, 256)      0         
 2D)                                                             
                                                                 
 conv2d_2 (Conv2D)           (None, 20, 20, 512)       1180160   
                                                                 
 max_pooling2d_2 (MaxPooling  (None, 10, 10, 512)      0         
 2D)                                                             
                                                                 
 conv2d_3 (Conv2D)           (None, 10, 10, 512)       2359808   
                                                                 
 max_pooling2d_3 (MaxPooling  (None, 5, 5, 512)        0         
 2D)                                                             
                                                                 
 conv2d_4 (Conv2D)           (None, 5, 5, 512)         2359808   
                                                                 
 max_pooling2d_4 (MaxPooling  (None, 3, 3, 512)        0         
 2D)                                                             
                                                                 
 flatten (Flatten)           (None, 4608)              0         
                                                                 
 dense (Dense)               (None, 512)               2359808   
                                                                 
 dropout (Dropout)           (None, 512)               0         
                                                                 
 dense_1 (Dense)             (None, 4)                 2052      
                                                                 
=================================================================
Total params: 8,560,388
Trainable params: 8,560,388
Non-trainable params: 0
_________________________________________________________________

Model Name: tumor9.h5
Image Size: 80x80
Batch Size: 32
Time taken: 386.88199400901794 seconds
Loss: 0.646851658821106
Accuracy: 0.8751937747001648
Recall: 0.8751937984496124
Precision: 0.8819147132847438
F1 Score: 0.8748794644090206_________________________________________________________________


Model Summary: 
Model: "sequential"
_________________________________________________________________
 Layer (type)                Output Shape              Param #   
=================================================================
 conv2d (Conv2D)             (None, 128, 128, 128)     3584      
                                                                 
 max_pooling2d (MaxPooling2D  (None, 64, 64, 128)      0         
 )                                                               
                                                                 
 conv2d_1 (Conv2D)           (None, 64, 64, 256)       295168    
                                                                 
 max_pooling2d_1 (MaxPooling  (None, 32, 32, 256)      0         
 2D)                                                             
                                                                 
 conv2d_2 (Conv2D)           (None, 32, 32, 512)       1180160   
                                                                 
 max_pooling2d_2 (MaxPooling  (None, 16, 16, 512)      0         
 2D)                                                             
                                                                 
 conv2d_3 (Conv2D)           (None, 16, 16, 512)       2359808   
                                                                 
 max_pooling2d_3 (MaxPooling  (None, 8, 8, 512)        0         
 2D)                                                             
                                                                 
 conv2d_4 (Conv2D)           (None, 8, 8, 512)         2359808   
                                                                 
 max_pooling2d_4 (MaxPooling  (None, 4, 4, 512)        0         
 2D)                                                             
                                                                 
 flatten (Flatten)           (None, 8192)              0         
                                                                 
 dense (Dense)               (None, 512)               4194816   
                                                                 
 dropout (Dropout)           (None, 512)               0         
                                                                 
 dense_1 (Dense)             (None, 4)                 2052      
                                                                 
=================================================================
Total params: 10,395,396
Trainable params: 10,395,396
Non-trainable params: 0
_________________________________________________________________

Model Name: tumor9.h5
Image Size: 128x128
Batch Size: 16
Time taken: 694.8331785202026 seconds
Loss: 0.6003309488296509
…
